






nc: 80
depth_multiple: 1.0
width_multiple: 1.0


backbone:

  - [-1, 1, Conv, [32, 3, 1]]
  - [-1, 1, Conv, [64, 3, 2]]
  - [-1, 1, Bottleneck, [64]]
  - [-1, 1, Conv, [128, 3, 2]]
  - [-1, 2, Bottleneck, [128]]
  - [-1, 1, Conv, [256, 3, 2]]
  - [-1, 8, Bottleneck, [256]]
  - [-1, 1, Conv, [512, 3, 2]]
  - [-1, 8, Bottleneck, [512]]
  - [-1, 1, Conv, [1024, 3, 2]]
  - [-1, 4, Bottleneck, [1024]]


head:
  - [-1, 1, Bottleneck, [1024, False]]
  - [-1, 1, SPP, [512, [5, 9, 13]]]
  - [-1, 1, Conv, [1024, 3, 1]]
  - [-1, 1, Conv, [512, 1, 1]]
  - [-1, 1, Conv, [1024, 3, 1]]

  - [-2, 1, Conv, [256, 1, 1]]
  - [-1, 1, nn.Upsample, [None, 2, "nearest"]]
  - [[-1, 8], 1, Concat, [1]]
  - [-1, 1, Bottleneck, [512, False]]
  - [-1, 1, Bottleneck, [512, False]]
  - [-1, 1, Conv, [256, 1, 1]]
  - [-1, 1, Conv, [512, 3, 1]]

  - [-2, 1, Conv, [128, 1, 1]]
  - [-1, 1, nn.Upsample, [None, 2, "nearest"]]
  - [[-1, 6], 1, Concat, [1]]
  - [-1, 1, Bottleneck, [256, False]]
  - [-1, 2, Bottleneck, [256, False]]

  - [[27, 22, 15], 1, Detect, [nc]]
